model/model.pth (torch, 16787 bytes, 4 tensors)

linear1.weight f4 [256, 11]
-0.07820613 0.35789153 0.3809597 -0.15764478 0.5139469 -0.23113966 -0.19390193 0.5518078
-0.34304604 0.3486294 0.325733 -0.6428248 0.36522275 0.065988876 0.27214688 -0.40807396
0.22343291 0.30640054 -0.00094023667 -0.40032583 0.28250927 0.21241571 0.14916809 -0.07234639
0.4950629 -0.19496451 -0.055873513 0.010553434 0.0016206447 0.48794895 0.32986164 0.3360735
0.3733343 -0.05956503 0.11645589 -0.1065003 -0.099213056 0.2669505 0.14924817 -0.25553775
-0.5011969 -0.022198437 0.17894334 -0.46462527 -0.110410035 -0.0697363 -0.1666293 -0.1655009
-0.20292118 -0.17984219 -0.15963642 0.20190719 -0.19428033 -0.27564412 0.11539607 0.14216477
0.08795661 0.17486641 -0.48166218 0.43231755 -0.37041235 -0.378693 -0.055575624 -0.31753162
0.4456146 0.30802682 0.27664298 0.36655226 -0.5824419 -0.09682515 -0.01591415 0.11915467
-0.5904054 -0.08836353 -0.47878098 -0.30033436 0.2460038 -0.051513072 0.32565475 -0.047557596
-0.26594105 -0.036396567 -0.25013822 -0.08899829 0.053817213 -0.17865506 0.1358038 0.0034568901
0.31343576 -0.6960681 0.07876529 -0.15628618 -0.01485223 -0.042259872 0.1484607 0.49998283
0.34719458 0.32454675 0.22900516 -0.042055357 0.11588041 0.14773944 -0.0063624964 0.113108166
-0.16712053 -0.15772562 -0.18573968 -0.0972839 -0.05938189 0.04838248 0.1411376 -0.6148063
-0.22196761 0.11448022 -0.3410349 -0.1672035 0.23666495 0.049407933 -0.37662703 -0.5586253
-0.062062073 0.19555445 -1.036149 -0.017127486 0.38671625 -0.34532723 -0.041526962 0.38056815
-0.4199114 0.5922314 0.20626073 -0.17522267 -0.042772315 -0.10110071 -0.5041992 -0.27189022
0.058949523 0.34187526 -0.27538586 -0.16958001 -0.31110036 -0.5395343 0.25021556 -0.25224966
0.07193869 0.02023983 -0.040212184 -0.18813077 -0.16713527 -0.29112887 -0.16751961 -0.21846578
0.040157944 -0.28324658 -0.35363236 -0.64789486 -0.019266646 0.5031877 -0.21010274 0.105311655
0.55099064 -0.31615704 0.30428162 -0.0678437 -0.42100126 0.09697426 0.12501347 0.113626085
-0.3641354 0.42151043 -0.32443327 0.12834907 0.7193207 -0.094317295 0.62066615 0.25231707
-0.10216957 0.3188065 -0.58928126 0.21503964 -0.35706562 -0.31291726 0.04540804 -0.42713717
0.14813258 -0.32650927 -0.050730262 0.43853533 0.1295294 0.5440273 -0.3295473 -0.14840901
-0.11422743 -0.28407487 0.48020592 0.3677651 0.20324863 0.4609929 0.16933726 -0.022256939
0.42011544 0.14848046 -0.18092057 -0.19605426 0.2649758 -0.24541086 -0.47505924 0.015544128
-0.32512218 0.21262018 0.45846024 -0.3714499 -0.44379565 -0.012832319 -0.22498187 -0.11590335
0.087868735 -0.19764496 0.2197612 -0.08396265 0.2919611 0.25972614 0.19526118 -0.625824
-0.37500852 0.32696363 -0.24241081 -0.105988905 -0.668073 0.22601156 -0.35465094 -0.022559788
-0.25027788 -0.14305389 0.06595039 -0.39015532 0.12423946 -0.35963082 -0.16824831 0.30019554
-0.39138684 -0.28619525 0.10661917 0.16395585 0.117241114 0.2910947 -0.32077202 -0.14546204
-0.33171767 -0.5497192 0.3040656 0.061865896 -0.5150569 -0.08162819 -0.2491176 -0.020805724
00000000: 892a a0bd 8f3d b73e 260d c33e a26d 21be
00000010: 0692 033f e0af 6cbe 3a8e 46be 4743 0d3f
00000020: bba3 afbe 8d7f b23e 7ac6 a63e 2b90 24bf
00000030: 7afe ba3e 2d25 873d d656 8b3e 12ef d0be
00000040: 99cb 643e 88e0 9c3e 377a 76ba 82f7 ccbe
00000050: 0ea5 903e 8183 593e 85bf 183e 582a 94bd
00000060: e278 fd3e c7a4 47be a0db 64bd 4fe8 2c3c
00000070: d06b d43a 72d4 f93e a0e3 a83e d311 ac3e
00000080: ac25 bf3e 76fa 73bd 6d80 ee3d d41c dabd
00000090: 3730 cbbd bcad 883e 83d4 183e d8d5 82be
000000a0: 714e 00bf 7fd9 b5bc ec3c 373e 5de3 edbe
000000b0: a81e e2bd e8d1 8ebd dfa0 2abe 1179 29be
000000c0: 92ca 4fbe 8d28 38be bb77 23be c2c0 4e3e
000000d0: 6cf1 46be 3a21 8dbe c654 ec3d a493 113e
000000e0: 9822 b43d 2e10 333e 6d9c f6be ba58 dd3e
000000f0: b0a6 bdbe 0de4 c1be 44a3 63bd 8193 a2be
00000100: 9927 e43e b1b5 9d3e 26a4 8d3e bdac bb3e
00000110: ea1a 15bf 444c c6bd 645e 82bc 5d07 f43d
00000120: cf24 17bf f0f7 b4bd c822 f5be 6dc5 99be
00000130: 6ce8 7b3e 5fff 52bd 38bc a63e c1cb 42bd
00000140: 6d29 88be 9114 15bd 1e12 80be bc44 b6bd
00000150: 706f 5c3d 5af1 36be 2710 0b3e fe8c 623b
00000160: a77a a03e 8531 32bf b24f a13d 7c09 20be
00000170: c556 73bc b018 2dbd 1506 183e c0fd ff3e
00000180: 7dc3 b13e fe2a a63e 5480 6a3e 3d42 2cbd
00000190: b552 ed3d 0249 173e 7d7c d0bb 41a5 e73d
000001a0: a521 2bbe d382 21be 8b32 3ebe c83c c7bd
000001b0: 6d3a 73bd b52c 463d 6086 103e f263 1dbf
000001c0: 7a4b 63be 9b74 ea3d 209c aebe 6537 2bbe
000001d0: 4c58 723e f95f 4a3d 42d5 c0be 1102 0fbf
000001e0: cd34 7ebd 6d3f 483e 88a0 84bf f14e 8cbc
000001f0: acff c53e bbce b0be 2d18 2abd d4d9 c23e
00000200: a1fe d6be 7a9c 173f 0336 533e 926d 33be
00000210: 0632 2fbd e40d cfbd 3313 01bf 3235 8bbe
00000220: 0e75 713d 460a af3e 60ff 8cbe 62a6 2dbe
00000230: 8c48 9fbe eb1e 0abf 411c 803e de26 81be
00000240: 9854 933d 00ce a53c 88b5 24bd 5aa5 40be
00000250: 8225 2bbe d80e 95be 438a 2bbe 7eb5 5fbe
00000260: a87c 243d b205 91be 4d0f b5be 70dc 25bf
00000270: 16d5 9dbc e9d0 003f 2c25 57be a3ad d73d
00000280: b90d 0d3f 56df a1be cdca 9b3e a3f1 8abd
00000290: 7a8d d7be 719a c63d 8803 003e cbb4 e83d
000002a0: f56f babe 37d0 d73e 1e1c a6be f06d 033e
000002b0: 6725 383f 6d29 c1bd fae3 1e3f b42f 813e
000002c0: 483e d1bd 9b3a a33e 23db 16bf 5a33 5c3e
000002d0: 4ed1 b6be b136 a0be c8fd 393d b9b1 dabe
000002e0: 11b0 173e 392c a7be 89ca 4fbd b487 e03e
000002f0: 5ba3 043e 6045 0b3f 6cba a8be 88f8 17be
00000300: 12f0 e9bd 4372 91be 8ddd f53e b54b bc3e
00000310: 6920 503e 4307 ec3e bf66 2d3e 2f54 b6bc
00000320: 5f19 d73e 430b 183e 3e43 39be 73c2 48be
00000330: e8aa 873e fc4c 7bbe f73a f3be ccac 7e3c
00000340: 6a76 a6be 1bb9 593e 4dbb ea3e ae2e bebe
00000350: 2f39 e3be a63e 52bc a661 66be bc5e edbd
00000360: 86f4 b33d 7163 4abe 1409 613e 9cf4 abbd
00000370: ed7b 953e d3fa 843e 8cf2 473e 0036 20bf
00000380: 1e01 c0be c767 a73e 8a3a 78be b610 d9bd
00000390: d506 2bbf 936f 673e cf94 b5be 4ecf b8bc
000003a0: 6c24 80be b87c 12be 0011 873d 70c2 c7be
000003b0: 4271 fe3d 8821 b8be 4949 2cbe 3bb3 993e
000003c0: db63 c8be 2f88 92be 275b da3d 0be4 273e
000003d0: 1c1c f03d 5d0a 953e 3b3c a4be 00f4 14be
000003e0: e6d6 a9be 66ba 0cbf 7cae 9b3e 1867 7d3d
000003f0: c5da 03bf ae2c a7bd af18 7fbe c470 aabc

linear1.bias f4 [256]
-0.40895736 0.07806616 -0.4648091 -0.25028953 -0.22763659 -0.19084324 0.14637148 -0.20198525
-0.38419023 -0.34689677 0.10072142 -0.2296868 -0.28822845 -0.13794406 -0.16113813 -0.4084638
-0.009437107 -0.25533286 -0.18767248 -0.16778366 -0.028350899 0.15271598 0.05623513 -0.23455174
-0.025986416 0.1180341 0.033149026 -0.2481988 -0.12392476 -0.0657362 -0.23113889 0.22572994
-0.040604215 -0.2521521 -0.42768204 -0.07171203 -0.041295074 0.48043534 -0.29855868 -0.2836401
-0.08380028 0.08988911 0.2597464 0.14940824 -0.11960896 0.09595618 -0.37392518 -0.11034168
-0.5122177 0.24062714 -0.09259416 -0.20698863 -0.042206056 -0.14716776 -0.2967656 0.32867625
0.20532271 -0.109334745 0.5404532 0.0066165016 -0.23848797 0.1690077 -0.06926349 -0.23072803
0.99953365 0.2873603 0.25806168 -0.034396704 -0.32776725 -0.25823998 -0.16710345 -0.24714924
-0.09421612 0.40313593 0.099333845 -0.4627542 0.0037108725 -0.22184494 -0.30787763 0.11827817
-0.3559082 -0.067131475 -0.5655917 -0.0005802857 -0.291062 -0.31600893 -0.17898937 -0.2151345
-0.13637307 -0.3023433 0.018204568 -0.62858284 -0.30793333 0.20470437 -0.3715374 0.010024802
-0.05144593 -0.269678 0.07314001 -0.19062229 -0.06838651 -0.13319157 -0.022281434 -0.3001022
-0.21882814 -0.3199884 -0.45885846 -0.39908656 0.14519703 -0.071405284 -0.03151717 -0.21841641
0.6664203 -0.062446132 -0.2908007 0.34053773 0.001820137 0.12800494 0.71851027 0.091618225
-0.20742837 -0.35734048 0.24865402 -0.038590413 -0.1328097 -0.29914677 -0.17037003 -0.31663078
-0.06821515 -0.4612891 -0.26242796 0.0073256716 -0.19138633 -0.34642243 0.2445302 0.31695366
0.06347385 0.08257444 -0.041253198 -0.3476545 -0.019865675 -0.16043375 0.00013707046 -0.12999326
0.20313962 -0.28395933 -0.15049571 0.028723987 -0.43457785 -0.17326975 -0.09078038 -0.04324386
-0.03160102 -0.15461755 0.46161425 -0.14379306 -0.1392196 -0.24241231 0.38255107 -0.32460865
-0.37892973 0.090147614 0.122024566 0.34236825 -0.41773182 -0.28656375 0.18411335 0.05545146
-0.044729993 -0.089664094 -0.15714328 0.30916485 -0.081988856 -0.16865811 -0.28217906 -0.15935156
-0.11206592 -0.40473938 -0.15887558 0.5511516 -0.03988629 -0.024979983 -0.18178807 -0.03949909
-0.36101475 0.043814294 0.13077249 -0.28343394 -0.36008358 0.12192584 0.2013117 -0.5507881
-0.13121434 -0.18750122 -0.40102497 0.09277646 -0.2933341 -0.30390593 0.0998731 -0.13041824
-0.21491443 -0.09330265 -0.33307928 0.3448815 -0.20761132 -0.26497862 -0.33954388 0.050704032
0.24100886 -0.27667496 -0.11866416 0.518122 -0.04842396 -0.095854424 0.37849733 -0.49544302
-0.060318936 0.05383452 -0.0044794176 -0.11505704 0.10362503 -0.25543508 0.21541987 -0.13318522
-0.23943612 -0.24149103 -0.25818574 0.21538876 -0.31746683 -0.2937201 0.4534004 -0.34608692
-0.22199391 -0.2564165 -0.11371502 -0.1402091 -0.349571 -0.19952251 0.0186712 0.032299858
0.96809494 0.20421171 0.02235446 0.6728484 -0.36530137 -0.42230502 -0.251595 0.09103618
-0.20608884 0.045170784 -0.5052513 0.47092617 0.27685392 0.3163698 -0.049329694 -0.20630895
00000000: dc62 d1be 27e1 9f3d 75fb edbe f325 80be
00000010: 9119 69be 696c 43be 68e2 153e 39d5 4ebe
00000020: 95b4 c4be 749c b1be 0847 ce3d 0433 6bbe
00000030: ae92 93be 3541 0dbe 6501 25be 2b22 d1be
00000040: 189e 1abc fdba 82be 372d 40be 7bcf 2bbe
00000050: 2540 e8bc 9461 1c3e cf56 663d 552e 70be
00000060: 77e1 d4bc ddbb f13d 46c7 073d d427 7ebe
00000070: 44cc fdbd b3a0 86bd acaf 6cbe c025 673e
00000080: 9b50 26bd 141a 81be 24f9 dabe c2dd 92bd
00000090: 0625 29bd 9ffb f53e afdc 98be 4639 91be
000000a0: 7b9f abbd c817 b83d 7bfd 843e 79fe 183e
000000b0: 8bf5 f4bd ac84 c43d 1f73 bfbe d2fa e1bd
000000c0: b320 03bf f666 763e 02a2 bdbd d4f4 53be
000000d0: 42e0 2cbd 25b3 16be a9f1 97be 4148 a83e
000000e0: 1e40 523e e5ea dfbd 245b 0a3f 3dcf d83b
000000f0: 3136 74be 5b10 2d3e 04da 8dbd f843 6cbe
00000100: 70e1 7f3f e420 933e a920 843e 8fe3 0cbd
00000110: 1cd1 a7be 0838 84be 2b1d 2bbe b114 7dbe
00000120: 62f4 c0bd d567 ce3e 8b6f cb3d 1eee ecbe
00000130: 1c32 733b 522b 63be 23a2 9dbe d33b f23d
00000140: 9939 b6be 3a7c 89bd 9eca 10bf 501e 18ba
00000150: 1406 95be eccb a1be fd48 37be 384c 5cbe
00000160: 62a5 0bbe becc 9abe bf21 953c ceea 20bf
00000170: 70a9 9dbe 069e 513e 263a bebe 113f 243c
00000180: f8b8 52bd 3c13 8abe 6eca 953d 7d32 43be
00000190: 3a0e 8cbd 5f63 08be 8e87 b6bc ffa6 99be
000001a0: 7c14 60be 85d5 a3be 7fef eabe 1355 ccbe
000001b0: 88ae 143e ef3c 92bd 2618 01bd 8da8 5fbe
000001c0: 859a 2a3f 84c7 7fbd d4e3 94be f65a ae3e
000001d0: aa91 ee3a ba13 033e 4af0 373f 56a2 bb3d
000001e0: 1a68 54be 55f5 b6be 299f 7e3e fb10 1ebd
000001f0: 44ff 07be c429 99be 7b75 2ebe 6e1d a2be
00000200: 62b4 8bbd 162e ecbe f55c 86be 300c f03b
00000210: c7fa 43be 485e b1be 2066 7a3e c047 a23e
00000220: 94fe 813d ca1c a93d 1df9 28bd c5ff b1be
00000230: 57bd a2bc bf48 24be 92ba 0f39 f41c 05be
00000240: d503 503e 1e63 91be 8c1b 1abe 914e eb3c
00000250: fd80 debe a06d 31be 10eb b9bd 7920 31bd
00000260: 1270 01bd 1054 1ebe b458 ec3e 7d3e 13be
00000270: 958f 0ebe ef3a 78be bcdd c33e 1b33 a6be
00000280: 1403 c2be 509f b83d 04e8 f93d e44a af3e
00000290: f2e0 d5be 7cb8 92be 3688 3c3e 1221 633d
000002a0: cc36 37bd cfa1 b7bd 2bea 20be db4a 9e3e
000002b0: c6e9 a7bd b6b4 2cbe c679 90be 0e2d 23be
000002c0: d182 e5bd 003a cfbe 48b0 22be 4518 0d3f
000002d0: ce5f 23bd d2a2 ccbc a726 3abe ccc9 21bd
000002e0: edd6 b8be 9e76 333d 39e9 053e 411e 91be
000002f0: e05c b8be 41b4 f93d a724 4e3e 7300 0dbf
00000300: 0d5d 06be 5200 40be 2553 cdbe 9601 be3d
00000310: e32f 96be 8f99 9bbe 458a cc3d 5c8c 05be
00000320: 8712 5cbe 7615 bfbd 5e89 aabe 4f94 b03e
00000330: 1098 54be 47ab 87be b2d8 adbe 08af 4f3d
00000340: 07cb 763e 57a8 8dbe 3206 f3bd a5a3 043f
00000350: 3458 46bd 534f c4bd 67ca c13e b5aa fdbe
00000360: fd10 77bd 9681 5c3d 14c8 92bb 06a3 ebbd
00000370: 5c39 d43d 63c8 82be 0797 5c3e b561 08be
00000380: be2e 75be 6d49 77be ec30 84be df8e 5c3e
00000390: 038b a2be 7b62 96be 1924 e83e 4e32 b1be
000003a0: 5f52 63be 0649 83be 6ce3 e8bd f992 0fbe
000003b0: f8fa b2be a14f 4cbe 58f4 983c db4c 043d
000003c0: 12d5 773f e01c 513e b320 b73c cb3f 2c3f
000003d0: c808 bbbe 5d38 d8be 0fd1 80be 2d71 ba3d
000003e0: f408 53be 0005 393d 2658 01bf 3c1d f13e
000003f0: ccbf 8d3e 39fb a13e ef0d 4abd a742 53be

linear2.weight f4 [3, 256]
-0.31052032 0.318978 -0.11071052 0.005430381 -0.048914954 -0.31707597 -0.12696934 -0.04264289
-0.12449455 -0.0038376271 0.1613287 -0.4273365 -0.28333414 -0.010962799 -0.38613898 -0.48763725
-0.1211487 -0.21677814 -0.017689724 -0.0085846 0.31598312 -0.17579146 0.04384251 0.18981555
0.041557856 0.59043676 -0.3511385 -0.02285704 -0.17696118 0.20323049 0.2884965 0.32663924
-0.1864611 -0.5851297 0.03919317 -0.09521922 -0.35904655 0.2766559 0.030116221 0.05787872
-0.75732684 0.30824924 0.103181496 -0.49914983 -0.26545224 0.018252084 -0.22966446 -0.21177992
-0.13068216 0.20132108 0.06857076 0.0004813776 -0.50620407 -0.5350002 -0.076814756 -0.122122884
-0.16989538 -0.06394376 0.2165949 -0.06311006 -0.20641142 -0.122746736 0.011436348 -0.15965916
0.39574566 0.19944328 0.23085183 -0.62256527 -0.3200153 0.051732898 -0.026028069 -0.0684725
-0.32782078 0.15018657 0.2233998 -0.22486359 -0.55072594 -0.024249723 -0.03297862 0.43027416
-0.025203308 0.2938829 -0.027674926 0.00015269616 -0.06978594 0.0014383966 0.06141095 -0.04574373
0.07253916 0.021516563 -0.39484495 -0.31158927 -0.001869932 0.4076597 0.0028779309 0.09682146
-0.019200621 -0.03558866 -0.46286738 -0.49965146 0.37715825 -0.035406232 0.41101196 -0.24786882
0.053349264 -0.33979154 -0.04719441 0.02186315 0.5249711 0.12892945 -0.29126436 0.01008441
0.5373112 0.23707654 -0.022726411 0.15132622 -0.5249499 -0.25359747 0.42016286 0.09361395
0.05931245 -0.097438216 0.3048776 -0.35130644 -0.3085994 -0.055739745 0.064788364 -0.39221278
-0.105852954 0.053984072 -0.23930225 0.3441938 0.09358854 -0.0682172 0.5163582 0.37622386
-0.12274092 -0.3847983 -0.3188036 -0.14161891 -0.1023407 -0.24703984 0.01569216 -0.3557131
0.2380264 -0.14530496 -0.0109454645 0.1762269 -0.15077995 -0.22991489 -0.0060569495 0.064875826
-0.27456173 -0.11376104 0.37744874 -0.036179096 0.0067520896 -0.031066757 0.43558505 -0.2882302
-0.0025371092 0.038052395 0.4548132 0.24651681 -0.041112844 -0.035728265 0.011726476 0.121830374
0.05673241 0.19474149 -0.096977465 0.35886058 0.0017701531 0.022990964 -0.046675373 -0.013520761
-0.024329916 -0.073829785 -0.26535642 0.25938737 0.03803218 0.3327224 -0.04939184 0.38900402
-0.0045826794 0.44761774 0.25628808 -0.016431533 -0.04210117 0.47900495 -0.6037449 -0.14632517
-0.03802217 -0.050121542 -0.02650476 -0.1526222 0.0053046737 -0.1574705 0.13851526 -0.006851011
-0.57166386 -0.0038686884 -0.23952901 0.44192195 0.0709928 -0.0332248 -0.062826514 0.4348842
0.25635806 0.003602151 0.023380555 0.25834933 0.21114047 0.019235674 0.10114874 -0.029513132
-0.51734215 0.35223737 -0.39513198 -0.45717144 0.104249746 0.0051927716 0.3273606 0.25303367
0.00602252 -0.18015544 0.06355375 0.22069924 0.04795305 0.064556874 0.24954519 0.010581702
-0.0015601468 -0.027608186 0.27556968 -0.05592963 0.019214183 -0.47391725 -0.3430853 0.08407238
0.4587823 0.24774462 0.014352671 0.36843848 -0.0022386678 -0.12448717 0.0066453475 -0.3749082
0.087524965 -0.20528415 -0.040755726 0.23551448 0.33717287 0.4340952 -0.0365979 0.091210075
00000000: 85fc 9ebe 1651 a33e 32bc e2bd 56f1 b13b
00000010: 0c5b 48bd c857 a2be 4004 02be 50aa 2ebd
00000020: 00f7 febd b380 7bbb 5a33 253e dacb dabe
00000030: 2c11 91be 509d 33bc 02b4 c5be 97ab f9be
00000040: cf1c f8bd 17fb 5dbe 0aea 90bc 6ca6 0cbc
00000050: 8ac8 a13e ad02 34be 3494 333d 025f 423e
00000060: 9238 2a3d dd26 173f 6dc8 b3be b03e bbbc
00000070: 5035 35be a71b 503e d0b5 933e 423d a73e
00000080: a9ef 3ebe 0fcb 15bf 0489 203d 4b02 c3bd
00000090: f3d4 b7be d8a5 8d3e 4bb6 f63c 3d12 6d3d
000000a0: 2ce0 41bf d8d2 9d3e d250 d33d 9190 ffbe
000000b0: 5be9 87be 6585 953c 292d 6bbe d6dc 58be
000000c0: 8bd1 05be 1d27 4e3e d46e 8c3d 6861 fc39
000000d0: 9796 01bf c6f5 08bf 0e51 9dbd 901b fabd
000000e0: 0ef9 2dbe f2f4 82bd 0ecb 5d3e d93f 81bd
000000f0: 845d 53be a462 fbbd 855f 3b3c b17d 23be
00000100: 2d9f ca3e dc3a 4c3e 6c64 6c3e 7060 1fbf
00000110: 0cd9 a3be e0e5 533d d138 d5bc 4f3b 8cbd
00000120: 20d8 a7be 82ca 193e ebc2 643e a442 66be
00000130: 60fc 0cbf 5ba7 c6bc 9714 07bd e54c dc3e
00000140: 2b77 cebc d277 963e 87b6 e2bc 101d 2039
00000150: eeeb 8ebd 9588 bc3a 0c8a 7b3d c75d 3bbd
00000160: 698f 943d 8143 b03c 1e29 cabe a188 9fbe
00000170: 8218 f5ba c6b8 d03e ab9b 3c3b 544a c63d
00000180: 9f4a 9dbc 6ac5 11bd f4fc ecbe 51d2 ffbe
00000190: e31a c13e 2006 11bd 2970 d23e 53d1 7dbe
000001a0: c284 5a3d 28f9 adbe ed4e 41bd 591a b33c
000001b0: 8264 063f 1506 043e 9a20 95be 1539 253c
000001c0: 3a8d 093f 31c4 723e bd2c babc 43f5 1a3e
000001d0: 1e63 06bf 87d7 81be 961f d73e acb8 bf3d
000001e0: 9df1 723d b08d c7bd eb18 9c3e 70de b3be
000001f0: be00 9ebe 5c4f 64bd c3af 843d 1dd0 c8be
00000200: 6fc9 d8bd 671e 5d3d a60b 75be 2b3a b03e
00000210: 59ab bf3d 76b5 8bbd 0d30 043f 6aa0 c03e
00000220: 975f fbbd 4804 c5be 3a3a a3be 8c04 11be
00000230: 0098 d1bd 03f8 7cbe d88c 803c 0720 b6be
00000240: 31bd 733e d3ca 14be 9b54 33bc d374 343e
00000250: 0f66 1abe cf6e 6bbe 6079 c6bb 9edd 843d
00000260: 5b93 8cbe 8cfb e8bd f640 c13e 8830 14bd
00000270: a240 dd3b b67f febc 0105 df3e e992 93be
00000280: a145 26bb d4dc 1b3d 47dd e83e e76e 7c3e
00000290: f165 28bd cd57 12bd 6820 403c 3482 f93d
000002a0: 3e60 683d 506a 473e 1f9c c6bd 93bc b73e
000002b0: 7b04 e83a 8c57 bc3c ad2e 3fbd 2f86 5dbc
000002c0: 884f c7bc 1234 97bd ccdc 87be 6cce 843e
000002d0: a2c7 1b3d 975a aa3e 194f 4abd 892b c73e
000002e0: 4d2a 96bb 272e e53e 3138 833e 6c9b 86bc
000002f0: 4772 2cbd 2340 f53e 078f 1abf 44d6 15be
00000300: 23bd 1bbd 3f4c 4dbd 8320 d9bc fe48 1cbe
00000310: d4d2 ad3b f23f 21be f2d6 0d3e 727e e0bb
00000320: 9058 12bf d289 7dbb 1847 75be 9843 e23e
00000330: ac64 913d ba16 08bd 30ab 80bd 24a9 de3e
00000340: 5d41 833e 1112 6c3b 9488 bf3c 5d46 843e
00000350: 3535 583e 2294 9d3c 1227 cf3d 86c5 f1bc
00000360: 8970 04bf 7558 b43e bd4e cabe 6012 eabe
00000370: e480 d53d 2028 aa3b cf9b a73e a18d 813e
00000380: 8f58 c53b ab7a 38be 7828 823d fbfe 613e
00000390: 6b6a 443d 6536 843d c688 7f3e e05e 2d3c
000003a0: d77d ccba 902a e2bc 7817 8d3e 7816 65bd
000003b0: 1067 9d3c 48a5 f2be e0a8 afbe 242e ac3d
000003c0: 83e5 ea3e c4b0 7d3e 7727 6b3c f8a3 bc3e
000003d0: 9db6 12bb 21f3 febd 37c1 d93b f8f3 bfbe
000003e0: 4a40 b33d 0236 52be 7aef 26bd b52a 713e
000003f0: eca1 ac3e ba41 de3e aee7 15bd 59cc ba3d

linear2.bias f4 [3]
0.34061584 -0.03277871 -0.0368461
00000000: 3365 ae3e f842 06bd f0eb 16bd
